Assets/ML-Agents/Model/Original/Original_10.onnx (onnx, 350179 bytes, 7 tensors)

action_model._continuous_distribution.log_sigma f4 [1, 6]
000000 15 85 e7 be ef cd 0e bf 28 9b 19 bf 32 5a 08 bf
       -0.4521872 -0.5578298 -0.60002375 -0.5326263
000010 0f cb 0e bf 8c 4d 0e bf
       -0.5577859 -0.5558708

action_model._continuous_distribution.mu.bias f4 [6]
000000 71 25 0a 3d 11 96 71 bd 83 dd c6 3d e3 f5 cd 3c
       0.033727113 -0.058981005 0.09710219 0.025141662
000010 42 dd 51 bd c7 7d f8 3c
       -0.0512364 0.030333413

action_model._continuous_distribution.mu.weight f4 [6, 128]
000000 31 ff 4d bd a7 51 8e 3d 80 4b c2 bd f3 3e 27 bd
       -0.050292198 0.06949168 -0.09487057 -0.040831517
000010 60 6b ea 3b 40 fa 8b bc a1 d4 e1 bc 93 0d 71 3d
       0.0071539134 -0.017087102 -0.02756721 0.058850836
000020 38 9a 13 bd df fe ce 3c 4b 64 c8 bd 72 3d d6 3c
       -0.036035746 0.025268016 -0.09784754 0.026152346
000030 a2 d8 81 3d 6f f6 04 3e 0a c7 20 3d 73 2e 77 3d
       0.063401476 0.12984632 0.03925232 0.06034703
000040 cb 4b 6f 3d 8b ae b0 3d 31 2b 6b bd 30 69 00 3e
       0.05842189 0.086270414 -0.057414237 0.12540126
000050 fb 9b ad 3d 0e 06 fb bc 1e 28 07 3d f3 f2 1f bd
       0.084770165 -0.030642536 0.032997243 -0.039050054
000060 67 10 b2 3d bb 63 14 3d da cd 0d 3c 58 76 b4 bc
       0.08694535 0.036227923 0.008655036 -0.022029087
000070 92 8b bf 3c e5 a4 82 3d be ea 8b 3c 43 44 ef 3b
       0.023381982 0.063791074 0.017079707 0.0073018386
000080 6b 6d f5 3c ce 06 0c bd 93 07 ad 3c d8 73 32 bd
       0.029959401 -0.034186177 0.021121776 -0.04356751
000090 64 89 e3 bb be 71 72 bd ca 23 43 3c e5 15 75 bd
       -0.0069438685 -0.059190504 0.011910388 -0.059835333
0000a0 b4 e2 3f 3d 24 30 14 3e ee 0c 56 bd 31 46 bd bd
       0.04684706 0.14471489 -0.052258424 -0.092419036
0000b0 7b 2c 59 bc 53 3b 45 3c 63 25 82 bd 97 bf c7 3d
       -0.013255234 0.01203807 -0.06354787 0.0975334
0000c0 20 10 a5 3b 66 80 81 bc d2 32 90 bd 95 e4 d8 bd
       0.0050373226 -0.015808295 -0.07040943 -0.105904736
0000d0 13 e5 7e bd ca ba ae bd 7b b8 70 3c a6 48 ad bc
       -0.06223018 -0.08531721 0.014692421 -0.021152806
0000e0 ad 30 ec bb 57 3e 23 3d 36 ba 3d 3d ff fa da 3c
       -0.007207951 0.039854374 0.046320163 0.026731012
0000f0 37 0b 3b 3d 54 87 09 3d cc 34 ba 3d 22 4a 31 bd
       0.045664992 0.033576325 0.090921015 -0.04328359
000100 4a 88 d0 3c 2b 9a b2 bd e1 f9 43 3d 87 4f ac 3d
       0.025455613 -0.087208115 0.047845725 0.08413606
000110 ff 8e 4b 3c a4 01 ae bd be c7 45 3d ef d5 dd bc
       0.01242423 -0.08496407 0.048286192 -0.02707955
000120 36 cc c9 bd 07 42 15 3c c7 97 61 bd 5e b9 01 3d
       -0.09853403 0.00910998 -0.055076387 0.03167092
000130 6c bf 7c 3d e0 02 9e bd b7 27 26 bd 9f f1 17 bc
       0.06170599 -0.07715392 -0.04056522 -0.009273916
000140 c9 d9 81 bd 45 54 da bc fb 35 a5 3d 78 b0 c3 3d
       -0.06340367 -0.026651511 0.080669366 0.09555143
000150 c8 7c 9c 3b 11 bf 07 3e cf b5 9b 3b 84 37 81 bc
       0.0047756173 0.1325648 0.004751898 -0.015773542
000160 46 e9 0e bc ee f1 91 3d c7 7e 37 3c f6 3f 04 3d
       -0.008722609 0.071262226 0.01119966 0.03228756
000170 bf e4 ad bd 7d 9a d5 3d e3 c8 b5 bd a5 a8 d4 3c
       -0.084908955 0.10429857 -0.08876207 0.025959322
000180 90 6c 25 bd 9e c8 ed bc 61 10 e2 3b d0 a6 c0 3c
       -0.040386736 -0.029026326 0.006898925 0.023517042
000190 5e 62 81 3d 05 13 6d 3c fa 6c 43 bc 1b a8 9f bd
       0.0631759 0.014469867 -0.0119278375 -0.077957354
0001a0 6c 64 69 bc 98 74 80 3c 49 23 78 bd 8f d9 94 bc
       -0.014245134 0.015680596 -0.060580526 -0.018170146
0001b0 bc 8b 8b 3d b4 5c 2b 3d d5 e6 5f 3c 5c 0e 12 bd
       0.068137616 0.041836455 0.0136658745 -0.035658225
0001c0 ad 30 6e bd d2 ea d4 3c 47 50 6d 3c 97 ec 0f 3d
       -0.05815189 0.025990877 0.014484472 0.03513774
0001d0 d4 65 40 3c 28 c4 b7 bd 33 d2 b7 3d df dc 27 3d
       0.011743028 -0.08972961 0.08975639 0.040982123
0001e0 75 e4 45 3d ef d9 a6 3d c9 93 12 3e 28 9c d5 3c
       0.048313577 0.08147036 0.14314188 0.026075438
0001f0 79 9e 4b bc 85 9b c8 ba e5 f5 b8 bc ef 9a 0e be
       -0.01242792 -0.0015305137 -0.02257819 -0.1392629
000200 9d 20 05 bd f4 72 6e 3d 9a 8a 2e bc 04 97 9f bc
       -0.032501806 0.058215097 -0.010653162 -0.01948119
000210 34 0d f2 bd 7f 2d 72 bc fa 17 04 bd c4 1d cb 3b
       -0.118189245 -0.014781355 -0.03224943 0.0061986167
000220 4e 3d 6c bd 26 13 f1 3c 81 7c 5c bd ad 73 4c 3b
       -0.057675652 0.029428076 -0.053829674 0.0031196878
000230 ba 7a 4c 3d 2f 14 62 bc d0 19 51 3a 48 2b c5 3c
       0.04992173 -0.013798757 0.00079765636 0.02406849
000240 30 e3 51 3d 64 c8 71 bd 7e 50 88 bd 92 ea 04 3d
       0.051242054 -0.059028998 -0.06655978 0.032450266
000250 08 69 ea 3c 1a e8 1b 3d aa 2f a4 bc a6 1b be 3d
       0.028614536 0.038063146 -0.02004226 0.09282617
000260 5b 7e a9 3c d9 7c 5c 3d 76 3b 68 3c 85 b4 c8 bc
       0.020690134 0.05383 0.014174333 -0.02450014
000270 6c e5 04 bd db 55 dd 3c e8 57 74 bc 41 3c 65 3c
       -0.032445356 0.027018478 -0.014913537 0.013991416
000280 b2 d6 78 3c 15 91 a5 bd 47 9e 70 bd 5a 8d 7f 3c
       0.015187906 -0.08084313 -0.058744695 0.015597666
000290 db aa 20 3d 2d 71 c7 3d cb 61 80 3d 85 33 98 3b
       0.03922544 0.097383834 0.062686525 0.0046448135
0002a0 22 db 08 3d b7 77 46 bc a7 dc 15 3c 46 e1 35 3d
       0.033412106 -0.012113503 0.009146846 0.04440429
0002b0 d4 a0 97 bc e7 ee b5 3c fd 1f 1d 3c 66 b9 17 3a
       -0.018509306 0.022208644 0.009590146 0.00057878194
0002c0 c6 17 0f bd 99 11 18 bd d7 c3 84 bc ae 43 5e 3c
       -0.03493478 -0.037126157 -0.016206665 0.013565941
0002d0 a1 93 e0 3c 5c 3b 59 bd f7 a4 2f 3d 1f 43 cf 3c
       0.027414145 -0.053035125 0.042881932 0.02530056
0002e0 b0 89 99 3d 23 22 81 bc e9 62 66 3d 24 5f 23 bd
       0.07496965 -0.015763348 0.05624667 -0.039885655
0002f0 4b b7 ad bb 15 b6 97 3d fb 32 64 bd e1 ed ff 3c
       -0.0053013912 0.07407776 -0.05571268 0.03124136
000300 17 be 66 bd 34 9d 25 bd 76 68 37 3a 60 39 be bc
       -0.056333628 -0.040433124 0.0006996462 -0.023220718
000310 e9 e9 b7 3c 65 f5 7a bd 8b b4 e3 bb 77 b4 6e 3c
       0.022450404 -0.061269183 -0.0069490126 0.014569393
000320 e9 b2 af bb 22 b3 41 3d 19 19 7b bc 8a 03 cc 3d
       -0.005361904 0.047289975 -0.015325808 0.099616125
000330 4b cd f0 bb 67 d1 55 bc 93 e7 23 3e d0 a6 07 bc
       -0.0073486916 -0.013050414 0.16006307 -0.008279517
000340 4d 82 29 3d 23 e3 27 3d ee 0b 29 bc 1a 04 e2 3c
       0.04138403 0.0409881 -0.010317786 0.027589846
000350 e1 e9 86 3c 0c e7 9e 3c a2 1a 7a 3d 21 52 89 bd
       0.016468944 0.019397281 0.061060555 -0.06705118
000360 2d 04 cb bc 7e fa e0 bd 55 50 f0 3d 8e b9 c3 3c
       -0.024782265 -0.109852776 0.11734072 0.02389219
000370 3b e7 4e 3d 15 a1 34 3d 3c 6b f4 ba c0 0c df bd
       0.050513487 0.044098932 -0.0018647681 -0.10891104
000380 4d 9c 7b 3c 82 c6 db bd 9c 96 a5 3b e4 a0 55 3d
       0.015357089 -0.10731222 0.0050533544 0.05215539
000390 55 cb e9 bc e3 af 0a bd e1 19 20 3c b3 1b aa bb
       -0.02853934 -0.033859145 0.009771795 -0.0051912903
0003a0 d5 97 5a bd c7 f6 8f 3b bd 0e 02 3d 04 ef 89 3d
       -0.053367455 0.004393432 0.031752337 0.06735042
0003b0 0d 46 6d bd 9c 25 99 3c c0 0f b7 3c 53 e1 2b 3b
       -0.057928134 0.018694691 0.022346377 0.0026226833
0003c0 3e 85 2a 3d 57 6b 0a bc eb 47 b5 3d d8 fe 32 bc
       0.041630976 -0.008448443 0.08851608 -0.010925017
0003d0 56 e2 52 3d 2a 66 b1 bd 40 de 3d 3d 7b 0f 37 3c
       0.051485382 -0.086620644 0.046354532 0.011173124
0003e0 04 be 08 bd 30 0b 37 bd bb 39 3c bc aa ec 5b bd
       -0.033384338 -0.044688404 -0.011488373 -0.053692497
0003f0 f2 40 e1 3d 72 b7 0f 3c 9b 06 0f bd ac b9 b5 bc
       0.109987155 0.008771764 -0.03491841 -0.022183262

network_body._body_endoder.seq_layers.0.bias f4 [128]
000000 b4 79 12 bd 7c 60 bc bd 01 39 28 3d a2 e4 87 bb
       -0.035760596 -0.091980904 0.04106999 -0.004147128
000010 2b 66 08 bc 89 86 34 bd cb 4f 30 3d 18 09 09 bd
       -0.00832514 -0.044073615 0.043044847 -0.033455938
000020 c1 0d 49 3a f5 86 66 3d aa 38 0d bd a8 c2 a4 bd
       0.0007669591 0.05628105 -0.034477867 -0.0804494
000030 40 c0 42 3b 3c 18 8f bd b5 c5 88 3d 85 04 80 3d
       0.002971664 -0.06987044 0.066783346 0.06250862
000040 fa 89 34 bc c1 90 71 bd d7 27 3e bd 8c b4 0d 3d
       -0.011019224 -0.05897594 -0.046424713 0.03459601
000050 08 a2 ae bc dd 65 3f bd 78 60 b6 bd 7f 87 37 bd
       -0.021317497 -0.046728004 -0.08905119 -0.044806954
000060 96 85 23 3c e0 72 69 3c 0f f3 68 bd 2b 46 55 bd
       0.00998058 0.01424858 -0.056872424 -0.05206887
000070 ac 06 2d 3d b6 7a cc bb 97 00 cb 3c 5f f8 c4 ba
       0.04224269 -0.006240214 0.024780555 -0.0015027634
000080 e1 fd f1 3c 81 dd 6b bd 96 0c 1a 3c 8f 37 12 bd
       0.029540004 -0.05758429 0.009402415 -0.035697516
000090 db f9 d2 bd ec 00 8a bd 1d f6 a3 bd f0 d0 81 3b
       -0.103015624 -0.06738457 -0.08005927 0.003961675
0000a0 cb 33 7d bd 38 85 83 bd b6 15 e2 3b df 0a 2a bc
       -0.06181697 -0.06421894 0.006899561 -0.010378568
0000b0 74 3b 28 bd a8 7a af bd bc 8b 2b bd 7b 4c 1f bc
       -0.041072324 -0.08568317 -0.041881308 -0.009722824
0000c0 33 6b b0 bc 5c 58 8e bd b5 cb bc bd 0c ec 94 bd
       -0.021535492 -0.06950447 -0.092185415 -0.07271585
0000d0 73 44 d9 bd 8a ff f1 3c 7a 3e 30 3c 0b 80 2e bd
       -0.10608759 0.029540796 0.010757083 -0.04260258
0000e0 f5 0c 06 bc 28 0d 5f bc ce 91 23 bd 8f 45 e4 3c
       -0.0081818 -0.013613977 -0.039933972 0.0278652
0000f0 54 02 af bb 04 02 06 bd 67 79 8a bc 0f 20 63 bb
       -0.0053408537 -0.032716766 -0.016903592 -0.003465656
000100 c2 5b e0 bc fe b4 0c bd b5 fe ef 3b 08 e2 39 bd
       -0.027387504 -0.034352295 0.0073240646 -0.045381576
000110 c4 d9 16 bd f0 f0 54 bd b6 29 ea 3b f5 b7 80 bb
       -0.03682877 -0.05198759 0.0071460856 -0.0039281794
000120 b1 95 39 bd 74 3d 0b bd d0 4d 08 3d b1 d5 d8 3a
       -0.045308772 -0.033994153 0.033277333 0.0016543177
000130 c0 a1 22 3d 9f f7 fe bb fe 9c 9d bd ea 14 f8 3c
       0.039705038 -0.0077809836 -0.076959595 0.03028341
000140 27 24 51 bd d4 3c bd 3b 7b ba 87 bc b4 7d 19 bd
       -0.05105987 0.0057750735 -0.016568413 -0.037473395
000150 84 be 10 3b 46 d9 5f bd d1 24 9c bd 1a 17 24 3d
       0.0022086212 -0.054650567 -0.0762421 0.040061094
000160 69 37 e6 bb aa fd 8e 3d 1b bc 02 bd ae 09 68 bd
       -0.0070256484 0.06981976 -0.031917673 -0.056649856
000170 b7 4c 77 3d 19 04 a9 bc 97 57 79 bd 25 53 c4 3b
       0.060375895 -0.020631837 -0.060874548 0.005991357
000180 4b f7 80 bd 4f f5 e6 3c 73 36 ac bb 37 7d 85 bc
       -0.062971674 0.028193144 -0.0052555143 -0.016295059
000190 f7 90 de bb 49 3b 08 3d bf fb 58 bd 93 f1 c4 bb
       -0.0067921835 0.033259664 -0.05297446 -0.006010243
0001a0 a3 55 e2 bd 3b 62 a8 bd aa df 69 bd e8 f2 92 bc
       -0.1105149 -0.08221861 -0.05709807 -0.017938092
0001b0 fb c0 90 3d 41 82 75 3c 0c ab d3 bc c4 1e a9 bd
       0.07068058 0.014984668 -0.025838397 -0.08257821
0001c0 51 56 c5 bd c7 fd 13 3d 40 70 16 bd 04 eb 8e 3d
       -0.09635604 0.036130693 -0.036728144 0.069784194
0001d0 3a 18 80 3c ee 63 ad bd 8b f3 3d bc 1e d4 29 3c
       0.015636552 -0.08466326 -0.01159371 0.010365514
0001e0 7a 7d cb 3c 43 a4 88 3c c5 f0 53 bd 18 99 43 bd
       0.024840105 0.016679889 -0.051743288 -0.047753423
0001f0 fa 65 4c 3c 9a 78 62 bd 88 2d b4 3b af b5 76 bc
       0.012475485 -0.055290796 0.005498592 -0.015057965

network_body._body_endoder.seq_layers.0.weight f4 [128, 544]
000000 56 98 d8 bd 2a 09 e3 bd 1a 53 79 3b 51 43 e8 bd
       -0.10575931 -0.11085732 0.0038043917 -0.113409646
000010 27 af 8b 3a f5 65 25 be af cd 35 3c 9b 42 4e 3d
       0.0010657058 -0.16152175 0.011096402 0.05035649
000020 43 2e aa bd bd 8f 5d bd 90 6b 02 be 2b 7f f3 bd
       -0.08309605 -0.054092158 -0.12736344 -0.1188949
000030 28 e3 a1 bd 57 d0 73 bd 72 59 e4 bd dc ed c5 bd
       -0.07904655 -0.05952486 -0.11149873 -0.09664509
000040 d7 90 c4 3c 0d b4 09 bd a2 ae 87 3c 8c da 21 3a
       0.023994846 -0.033618975 0.016562764 0.00061742286
000050 04 3f 29 be c1 c2 fe bc e6 a0 ba bd cd 47 01 be
       -0.16527945 -0.031098725 -0.0911272 -0.12625046
000060 c3 e1 1b bd 7c 00 38 3d f3 e2 c0 bd 70 7e d9 bc
       -0.0380571 0.044922337 -0.09418287 -0.026549548
000070 b6 87 03 bd fd 2f b0 bd 09 a4 82 bd 14 0f 84 3b
       -0.032111846 -0.08602903 -0.063789435 0.0040301178
000080 72 51 ac bd f1 5d 93 bd d1 c0 c6 bc 01 82 e5 bc
       -0.08413972 -0.07195652 -0.024261864 -0.028016092
000090 a8 bf 99 bd f9 10 cf bc a4 e6 f0 bd 2d e3 9d bd
       -0.07507259 -0.025276648 -0.11762741 -0.07709346
0000a0 2c 51 c1 bc 14 25 cf bd 41 4c 47 bd 60 8a 14 bd
       -0.023598276 -0.10114494 -0.048656706 -0.036264777
0000b0 48 c9 3d 3d b1 47 bf bd 99 9f 86 bd b9 22 dc bd
       0.046334535 -0.09339846 -0.065734096 -0.1074881
0000c0 2b 07 04 be bc 70 b1 bd 4a 24 e4 bd 71 11 32 be
       -0.1289336 -0.086640805 -0.11139734 -0.17389466
0000d0 be 24 ba bd 21 2a 23 be 4b cf 31 be 16 6d bd bd
       -0.09089039 -0.1593404 -0.17364232 -0.09249322
0000e0 33 ca f8 bd 77 4b d4 bd 78 6b c9 bd 06 13 9f bd
       -0.121479414 -0.10365956 -0.09834951 -0.077673
0000f0 f9 31 52 bd e6 39 98 bd df aa be bd 9b 1d 0c be
       -0.05131719 -0.07432918 -0.09309935 -0.13683169
000100 60 40 02 bd 83 26 e0 bd 52 a6 62 bd c1 94 df 3b
       -0.031799674 -0.109448455 -0.055334397 0.006823153
000110 4a f7 a8 bd b8 66 8b bd 64 b7 c1 bd 97 a0 9c bd
       -0.08250292 -0.068067014 -0.09458807 -0.076478176
000120 cc 7d 7c bd 83 91 c9 bd 1a f7 64 bd d0 92 c7 bd
       -0.061643407 -0.09842207 -0.055899717 -0.09744799
000130 79 0a 4a bd 99 5d ef bd 99 2a 0a be 30 b4 92 bd
       -0.049326394 -0.11687774 -0.13492812 -0.07163274
000140 c7 a7 d9 bd 51 1a fb bd 6e 64 d7 bb 17 e9 92 bd
       -0.10627704 -0.12260879 -0.0065732514 -0.071733646
000150 7c bd e9 bd c5 e6 c8 bc 33 97 40 bd f9 8b 07 be
       -0.114130944 -0.024524102 -0.047019195 -0.13236989
000160 74 c2 c4 bd a9 ef a6 bc 54 35 66 bd fa d9 46 3d
       -0.096074015 -0.02037795 -0.0562032 0.048547722
000170 ce 0d bc bd 35 9e 0a be 05 2a 67 bd f7 df b1 bd
       -0.091823205 -0.13536914 -0.056436557 -0.08685296
000180 70 f0 2f be 25 a1 25 bd fe dd ae bc c3 a2 93 bd
       -0.17181563 -0.040436883 -0.021346088 -0.07208779
000190 16 c3 dc 3c f3 6b 40 bd a8 f1 01 be a8 2f c6 bd
       0.026948493 -0.04697795 -0.12689841 -0.096770585
0001a0 2b de 96 3c 74 96 ba bc be 32 42 bd 37 6d 12 bd
       0.018416485 -0.02277682 -0.047411673 -0.035748687
0001b0 d0 ee 27 bd 38 eb 37 bd a0 e7 e3 bc bd c8 81 bd
       -0.040999234 -0.044902056 -0.027820408 -0.06337116
0001c0 ad 93 f3 bc 13 90 c3 3d 5f f3 6e bd a9 5c 40 bd
       -0.029733503 0.09548964 -0.058337566 -0.046963368
0001d0 70 f0 07 bd 06 27 a6 3c c8 a9 36 3c 81 eb 08 3b
       -0.033188283 0.02028228 0.011148877 0.0020892324
0001e0 30 94 ac 3b d0 89 97 bc 55 95 ab bb 6d 3f 1f 3d
       0.0052666888 -0.018498331 -0.0052363076 0.038878847
0001f0 56 30 bc bc ef 03 a0 bd eb 59 0c 3c 32 22 ba 3c
       -0.022972267 -0.0781325 0.00856636 0.022721384
000200 c0 e5 d5 3c 27 1f b5 3d 0a 4e 9e bc 71 82 9d 3d
       0.02611053 0.088438325 -0.019324321 0.07690895
000210 50 48 77 3c 60 ba 49 3d 5b da cf 3c 81 65 ad 3d
       0.015092924 0.049250007 0.025372675 0.08466626
000220 ab a5 62 3d 51 4c c7 bc 07 e9 f3 3c 29 7d 46 bd
       0.055333775 -0.024328383 0.029774202 -0.048459206
000230 ce 63 a5 bd 04 bf 2f be 91 e7 ed 3c 11 79 0f 3e
       -0.08075677 -0.1716271 0.029041084 0.14011027
000240 30 d2 da bc e8 e4 8d 3d e0 c9 96 bc 3a 70 c0 bd
       -0.026711553 0.06928426 -0.018406808 -0.093964055
000250 cf 2a 81 3c ad 57 d9 39 af e1 80 bd 82 86 78 3d
       0.015767483 0.0004145479 -0.06293046 0.06067515
000260 3e 87 3a 3b 19 8f ac 3b 49 0e 91 bb 37 bd 5a bd
       0.0028461958 0.005266082 -0.0044267518 -0.053403106
000270 83 49 91 bd 14 49 93 bd 25 f8 ae bc 23 9b 71 bd
       -0.070940994 -0.07191673 -0.021358559 -0.05898584
000280 4c ac 9a bc d2 08 46 3c 4f a0 58 bd f0 7e d2 bc
       -0.018880986 0.012087064 -0.052887257 -0.025695294
000290 a3 05 36 bc da 85 6f bd 6c 86 d7 bd 5e 1c 83 3d
       -0.011109742 -0.05847726 -0.10523686 0.06401895
0002a0 5f 78 cf bc 99 6c 58 3d 0c 81 0c be 6f a5 a2 bc
       -0.025325952 0.05283794 -0.13721102 -0.019854276
0002b0 8d a3 4c bd 75 f2 9a bc d5 2e d7 bc 52 fe a9 3c
       -0.04996066 -0.01891444 -0.026267448 0.020751152
0002c0 e0 bb fe bc 18 be f9 bc 0c 7e 06 3b 62 93 86 3d
       -0.031095445 -0.030486152 0.0020521907 0.0657108
0002d0 64 9e 5a 3d a4 4d b3 3c 34 9f 0d bd 88 2a fe bc
       0.05337371 0.021887608 -0.034575656 -0.03102614
0002e0 c8 bb df bd 02 ae 80 bc fc d3 28 bd df 57 3e bc
       -0.10924488 -0.015707973 -0.04121779 -0.01161763
0002f0 ab bf 9d bc ac d1 43 ba c4 f1 4c bd e8 e6 7b bd
       -0.019256433 -0.0007469903 -0.050035253 -0.061499506
000300 9c 1e 5d bc b4 f1 36 bd ae b0 5f bd 52 43 e2 bc
       -0.013496067 -0.0446641 -0.054611854 -0.027619991
000310 11 6a 53 bd 79 4a 80 bd b0 2e b8 bd 0c 88 8f bd
       -0.051614825 -0.062642045 -0.0899328 -0.07008371
000320 3f 7c dc bd 67 1d 2e 3c f7 0b 48 3b 8e 13 98 bd
       -0.107658856 0.010627127 0.003052471 -0.07425605
000330 c6 39 98 3c 4c eb ac 3c 93 cb 11 bd 5d 71 0e 3b
       0.018582236 0.021108292 -0.035594534 0.002173505
000340 0f 6b 6f 3b d8 84 90 bd f4 f6 4d 3c 90 ec c3 3b
       0.0036532318 -0.07056588 0.012571085 0.005979128
000350 7b 1e c0 bb ba a9 1a bd 55 f5 08 3c e9 b8 e1 bc
       -0.0058630086 -0.03775952 0.008359273 -0.027553992
000360 40 e3 76 3c 7d 45 5a bd 05 c4 6f bd 29 81 8f bc
       0.015068829 -0.053288925 -0.05853655 -0.017517643
000370 5a e6 f1 3b b2 a3 9f bc 37 b7 3d bd 6f e0 ce 3c
       0.0073821964 -0.019487236 -0.046317305 0.025253503
000380 31 28 d3 bc de 26 83 bd fb 9f 82 3d 8c 0a a0 3d
       -0.025776 -0.06403898 0.0637817 0.07814512
000390 43 37 1e 3c 94 58 76 bc cb 11 a9 3c b1 f9 07 3d
       0.00965673 -0.015035767 0.020638367 0.03319711
0003a0 2c f6 c8 3d 60 39 78 3d 1b 07 3c 3c ad a8 b1 3d
       0.098125786 0.060601592 0.011476303 0.086747505
0003b0 a7 93 51 3e 1e 92 0a 3e 57 f5 14 3e 61 a2 31 bd
       0.20466481 0.13532302 0.14546715 -0.043367747
0003c0 7e 30 36 3e 75 94 b2 3d 9e be 39 3d d8 9d 85 3d
       0.17791936 0.08719722 0.045347802 0.06524247
0003d0 57 c6 b9 3d e2 30 13 3e 6f 56 4f 3d dd e1 09 3e
       0.090710334 0.14374116 0.05061954 0.13465066
0003e0 e0 6c e2 3d 9f 02 00 3d 49 1d f7 3d 29 43 21 3e
       0.110559225 0.0312525 0.120661326 0.15748276
0003f0 4f fb 03 3d 04 8b 93 3d 1b 72 64 3d 2b ec 3a 3d
       0.03222209 0.072042495 0.055772882 0.045635384

network_body._body_endoder.seq_layers.2.bias f4 [128]
000000 19 c7 9b bd ce 86 90 bc 42 7b ab bd 42 7f a7 bc
       -0.07606334 -0.017642405 -0.08373119 -0.020446423
000010 c2 19 4c bd bc 2d ac bc 61 95 b1 bd 35 d9 20 bd
       -0.049829252 -0.021017902 -0.0867107 -0.039269645
000020 99 76 40 bd c9 12 d5 bc 22 f2 09 3d 43 1e f0 bd
       -0.046988104 -0.026009934 0.03367818 -0.11724522
000030 7b 66 b1 bd a6 45 0d 3d 27 24 26 bd 7e a5 5c bd
       -0.08662125 0.03449025 -0.04056182 -0.053868763
000040 66 28 55 bc 38 d6 b5 bd e6 8f a3 bd a7 18 d0 bc
       -0.01301012 -0.088787496 -0.07986431 -0.02540238
000050 6b 79 74 bd eb 51 19 bd 9d 56 66 3d f9 52 a7 3c
       -0.059686106 -0.03743164 0.056234945 0.020425307
000060 10 cc 3b bd 9a 1a 5d 3c f0 89 49 bd 00 53 41 bd
       -0.045848906 0.013495112 -0.049203813 -0.047198296
000070 4a 08 42 bd 3e 7b 9b bd e0 d8 a7 bb 1d 5a 72 bc
       -0.047371186 -0.07591866 -0.005122289 -0.0147919925
000080 1c 93 48 3c ea 73 14 3d 8b 33 b1 bd 20 39 6d bd
       0.012242105 0.036243357 -0.08652409 -0.057915807
000090 61 d6 39 bd 63 b7 fe 3c 28 db 44 3c 70 7b 2b bd
       -0.045370463 0.031093305 0.012015142 -0.041865766
0000a0 e4 e8 60 bb 11 03 03 3d e2 5d fc bc 3d 93 1d bd
       -0.00343185 0.031985346 -0.030806486 -0.038470495
0000b0 13 d0 b4 3b fc fc ee bc 62 65 f2 3c 17 05 e0 39
       0.0055179684 -0.029173367 0.029589359 0.00042728402
0000c0 96 a8 08 3c 29 b9 02 be e8 26 9e bd 3a 9a 3c bd
       0.008340975 -0.12765945 -0.077222645 -0.04604552
0000d0 b1 e6 36 bd 34 50 4b bd e0 30 3d bd 03 74 82 bc
       -0.0446536 -0.049637035 -0.04618919 -0.01592446
0000e0 ce 98 39 3d f8 22 d6 bc 53 5d 78 bd 5d 25 6c bd
       0.04531174 -0.026139721 -0.060635876 -0.05765282
0000f0 51 e4 a1 bd c6 8e 65 3b 06 4f 00 bd 25 b1 41 bc
       -0.07904876 0.0035027727 -0.031325363 -0.01182202
000100 2b e6 40 3c 9c 7c b6 bc c4 6c 39 b9 01 01 96 3d
       0.011773626 -0.022276215 -0.00017683493 0.0732441
000110 a1 15 2a 3c 81 09 64 bc 49 19 a3 bd 63 70 57 bd
       0.010381133 -0.0139182815 -0.07963807 -0.052597415
000120 d5 1c 17 bd 0b 67 cb bc 64 46 d4 bd b4 87 8a bd
       -0.03689273 -0.024829408 -0.103649884 -0.067641646
000130 6d 18 65 bd 18 8f 7a bd f3 03 16 3d a2 2d 1b 3b
       -0.055931497 -0.06117162 0.03662486 0.0023678322
000140 22 0c 13 3d 93 da 92 bd ec 8c a0 3d 6a d5 19 3d
       0.035900243 -0.07170596 0.07839379 0.037557043
000150 e5 4f 7a bd 7a 43 7d bd 76 58 28 bd d1 38 9d 3c
       -0.06111135 -0.06183193 -0.041099988 0.019192131
000160 78 77 a5 bd 08 4c 1f 3d df 65 3f bc 5d 94 2b bd
       -0.080794275 0.03889087 -0.011682003 -0.041889537
000170 70 11 64 3c a6 48 17 3c bf 89 f7 3c 7b e7 ad 3b
       0.013920173 0.009233629 0.03021705 0.0053071356
000180 4e 1e 37 bd 40 08 b4 bc 74 61 c7 3c bb 31 25 bd
       -0.044706635 -0.02197659 0.024338461 -0.04033063
000190 6d c3 af bb 73 4a 6a bd e3 78 9c 3c f1 98 9a bd
       -0.0053638727 -0.057199907 0.019100612 -0.075487025
0001a0 f4 15 cd bc db 8a 15 3d d6 28 a2 bd 70 c8 76 bd
       -0.025034882 0.036509376 -0.07917945 -0.060249746
0001b0 f5 2d a4 bc fd 1d a0 3c 1d 8b 12 bd b5 e9 76 bd
       -0.020041445 0.01954555 -0.0357772 -0.060281474
0001c0 8b 73 71 bd 67 90 fa bc b6 3c 9d bc 1c d5 51 3d
       -0.05894808 -0.030586435 -0.019193988 0.051228628
0001d0 f9 ec 21 bd e1 92 5f bd f2 20 a4 bc f9 34 90 bd
       -0.039532635 -0.054583434 -0.02003524 -0.07041354
0001e0 bc 1c 99 3c 02 4c eb bd 63 05 9a 3d 5a ad 97 bd
       0.01869046 -0.11489107 0.07520559 -0.07406111
0001f0 72 b7 c9 bd 2f a3 35 bd 03 c7 6d bb b9 21 f2 bc
       -0.098494425 -0.044345077 -0.003628195 -0.029557096

network_body._body_endoder.seq_layers.2.weight f4 [128, 128]
000000 13 9d f0 3d 0e f4 7b bd 33 2c bc 3d 0d ec 29 bd
       0.117487095 -0.061512046 0.09188118 -0.04148488
000010 a1 67 b6 3d fb 1d 2d be 95 69 ea bd 59 f5 4f be
       0.089064844 -0.16905968 -0.114459194 -0.20308436
000020 18 e0 3a be b5 31 39 3d e9 d7 91 3c cc a9 ae 3d
       -0.18249547 0.04521342 0.01780315 0.0852848
000030 33 65 36 3b 40 a2 30 3a c5 cd f8 bd 82 0f e1 38
       0.0027831316 0.00067380443 -0.121486224 0.000107317246
000040 90 e8 53 3d a9 c8 0f 3e 3e a4 b4 bc 43 d2 df 3d
       0.05173546 0.1404139 -0.022050973 0.10928776
000050 2d 91 9e be f9 a9 ec 3d ed 89 34 3d f4 86 32 3e
       -0.30970135 0.11555857 0.04407685 0.17434293
000060 af 00 91 bc 4e f6 f5 bc 60 a3 8d bd 33 51 d0 3d
       -0.017700521 -0.030024674 -0.06915927 0.101717375
000070 2c 04 20 be 6b e4 07 bd a1 f8 ff bd 2a 6d b6 3d
       -0.15626591 -0.03317682 -0.12498594 0.0890754
000080 a9 7a 1b bc 23 21 fc bc d1 ff ec 3c eb 09 20 be
       -0.009489694 -0.03077752 0.028930577 -0.15628783
000090 12 28 02 be 40 4c 80 bd f2 11 53 bc 00 ba 42 3d
       -0.12710598 -0.062645435 -0.012882696 0.047540665
0000a0 05 04 a1 3c 77 74 3d 3d 6b d9 63 3a b6 6a 8d 3d
       0.019655237 0.046253648 0.00086917606 0.06905119
0000b0 45 78 1c be 3e 3f de bd 05 85 31 bd 2a 10 ed 3c
       -0.15280254 -0.10851906 -0.043339748 0.028938372
0000c0 6e c0 62 3e d0 28 27 3e ba 51 e1 bb 4b 70 b7 bc
       0.22143719 0.16324162 -0.0068761976 -0.022392413
0000d0 57 b0 28 3d 7a 2f 1d be 36 b3 c2 bd 5d fb be 3b
       0.041183796 -0.15350142 -0.09506838 0.0058283047
0000e0 6c ae 9f 3d fd 1b 80 3d d6 71 09 bd a2 e1 8f bd
       0.0779694 0.06255338 -0.033555828 -0.07025458
0000f0 c2 97 74 3e 28 e6 fd bc 7a 5f 02 be c4 09 98 3d
       0.23886016 -0.030993536 -0.12731734 0.07423738
000100 f5 31 08 bd c3 88 49 3d 42 21 41 bd 20 13 ba bd
       -0.033250768 0.04920269 -0.047150858 -0.09085679
000110 b9 e0 ca 3d a3 5b da bd 09 d3 af 3d da 5e aa bc
       0.09906144 -0.106620096 0.08585174 -0.020797182
000120 a3 3d 84 bd a4 f1 a4 bd 12 3e 30 bc 5a b4 60 be
       -0.06457069 -0.08053902 -0.010756986 -0.21943799
000130 f7 b8 75 bd 94 61 9b bd fd 49 82 bb 19 93 16 3e
       -0.05999085 -0.07586971 -0.0039761052 0.14704551
000140 ca 5c 62 3e 6a 8d e2 3d a1 a2 ac 3c bd 7f 60 3d
       0.22105709 0.11062129 0.021073641 0.05480932
000150 6d 71 84 be b0 7e ae bd e0 24 98 be f2 9f 7d bd
       -0.25867787 -0.085202575 -0.29715633 -0.061920114
000160 af da 3c 3e c2 8e 18 bd c5 c2 df bd 80 77 ad 3d
       0.18442796 -0.03724552 -0.10925821 0.084700584
000170 46 df 52 bd 7a 36 b8 bc 59 ff b5 bb af 2e 85 3d
       -0.05148246 -0.022486914 -0.0055541215 0.06503045
000180 8d 35 af bc 3d 09 30 be 8f 66 48 3e d9 72 06 3d
       -0.02138784 -0.17191024 0.19570373 0.03282437
000190 8a 75 02 bc 52 40 0d 3d 49 ed 3d bd 0a 76 a4 3c
       -0.007962594 0.03448517 -0.04636887 0.020075817
0001a0 76 b2 92 bc 5d 32 21 be 04 06 b4 bc 4d 34 94 3d
       -0.017907362 -0.15741868 -0.021975525 0.07236538
0001b0 e8 1f cd 3c 98 76 37 bc f7 31 4f bc d9 18 56 bd
       0.025039628 -0.011197709 -0.01264619 -0.05226979
0001c0 3e ea 3e bd 85 1a 8f bd 70 a8 3c be 4c e0 80 bd
       -0.04661011 -0.0698748 -0.18423629 -0.06292781
0001d0 6b 4a 26 be 32 54 1b 3e c8 bf 59 bd 75 ad 22 3d
       -0.16239326 0.15168837 -0.053161412 0.039716203
0001e0 ca ca ee 3d 5e 57 01 bc a8 0d db bd 05 93 5a bc
       0.11659773 -0.007894365 -0.10695964 -0.013340716
0001f0 ad 28 62 3d ce a9 8f 3e 17 ca 3b 3b 12 43 12 be
       0.055214573 0.28059238 0.002865439 -0.14283398
000200 81 a7 76 bd 2e e3 0e 3c 62 81 bb bd 96 67 3c 3d
       -0.060218338 0.008721156 -0.09155537 0.045997225
000210 eb a5 e4 bd f7 42 dd bd d6 23 17 3c 3e 93 fd bd
       -0.11164459 -0.10803788 0.009224853 -0.123816
000220 24 f8 c2 bd 5f 1c 38 3e 6e 84 cf bd 51 24 0e bd
       -0.09519985 0.17979573 -0.10132681 -0.034702603
000230 ea 27 94 be e3 5f b8 3d 30 19 23 3d 47 36 82 3d
       -0.28936702 0.09002664 0.039818943 0.06358009
000240 38 59 0a be 1e 67 b1 bd f5 11 23 bd 94 f4 99 bd
       -0.13510597 -0.08662246 -0.039812047 -0.07517353
000250 e5 b0 2d be 7a 92 f2 3d e9 15 00 be 22 1c de 3d
       -0.16962011 0.118443444 -0.12508358 0.1084521
000260 a0 f8 70 bd 53 cf c7 3d de 4b ba bd 59 4d 1b be
       -0.058830857 0.09756341 -0.09096502 -0.15166225
000270 18 55 5d 3d 26 5d 0a be bf ab 87 3d a9 38 2e bd
       0.05403623 -0.13512096 0.06624555 -0.042534504
000280 35 9b d6 3d 06 d4 08 be ff 2d 08 be 84 ea fd 3c
       0.10478822 -0.1336213 -0.13298796 0.030995615
000290 c6 75 3e be 49 ec 1b 3c d9 15 c4 bd bc 2a 10 3e
       -0.18599615 0.009516784 -0.095744796 0.14078802
0002a0 1d 27 a3 3c 3a fd cb bd ec 1e 99 bd 0a 32 27 be
       0.019916112 -0.099604085 -0.07476601 -0.16327682
0002b0 69 da 09 3e 94 01 5b 3b 66 1a f1 bd ea 57 4d bd
       0.13462223 0.0033417689 -0.11772613 -0.05013267
0002c0 dc 3c 47 bd 0c 5a 97 3d 91 7b 10 be 79 77 5c 3d
       -0.048642024 0.07390222 -0.14109637 0.053824876
0002d0 55 41 0f 3c e6 f6 f1 3c cb 74 ca bd 0c 77 59 be
       0.008743604 0.029536676 -0.09885558 -0.21236819
0002e0 3d 33 1a 3e 38 3b 17 bc 23 59 48 bd 6d 10 ff 3c
       0.15058608 -0.009230427 -0.048913132 0.031135762
0002f0 7f bc c9 bd 65 6b 95 3d f6 cf 4b bd 62 77 60 be
       -0.09850406 0.072958745 -0.049758874 -0.21920541
000300 5b c5 aa 3d ae db aa bc f2 fa fe bc 2e f0 0c be
       0.08338424 -0.020856705 -0.03112552 -0.13763496
000310 da 9c c7 bd d0 bd 62 3d a7 35 fc bc 78 4d 2d 3e
       -0.09746714 0.0553568 -0.030787302 0.16924083
000320 a4 f7 17 3d ce 3a 5b be a7 17 3a 3d 3d 97 fa 3d
       0.037101403 -0.21409151 0.045432713 0.12235878
000330 0a b2 42 bc 7f 2e 6e bd 7d 90 97 bd c5 57 43 3d
       -0.011883268 -0.05814981 -0.07400606 0.047691125
000340 8e 80 42 be d3 85 d0 bd 34 20 74 3c 99 f6 36 be
       -0.18994352 -0.10181775 0.014900256 -0.17867507
000350 92 c4 14 3d 58 c7 37 bd 54 8d 41 be 67 0a 32 3c
       0.036320277 -0.044867843 -0.18901569 0.010866738
000360 b6 44 ed 3d 11 1d 3b 3e 09 4b 8d bc d3 f5 c7 bd
       0.11585371 0.18272807 -0.017247694 -0.09763684
000370 dd 1e ea bb 8d 82 9b 3d ce 7d 65 3c e5 5b 3d bd
       -0.0071447925 0.0759326 0.014007045 -0.046230216
000380 2c 18 6a be 49 af 95 bd 34 2c b5 bd 35 7f 56 bd
       -0.22860783 -0.073088236 -0.08846322 -0.052367408
000390 7f 6a d8 bd 2e e7 39 3d fe 3e 79 bd cb d7 96 bd
       -0.105671875 0.045386486 -0.06085109 -0.07365378
0003a0 dd 83 64 bd 36 72 70 bd e4 fe 05 be df 91 53 be
       -0.055789817 -0.05870267 -0.13085514 -0.20661114
0003b0 5d c9 4f 3e 85 a9 37 be 3a 78 8f 3c b7 12 b5 bc
       0.20291658 -0.1793576 0.017513383 -0.02210365
0003c0 45 57 d0 3d f7 32 6c bd 3a 79 ca bc bf 3c 22 bd
       0.10172895 -0.05766579 -0.024716008 -0.039608713
0003d0 8e 68 9b 3d 20 8b ca 3d 09 b6 26 be dd 67 25 be
       0.075883016 0.09889817 -0.16280378 -0.16152902
0003e0 15 d0 ef bd 77 fa 86 3d 7e 3d a2 bd 8c 35 12 3e
       -0.117096104 0.06590741 -0.07921885 0.14278239
0003f0 f9 d0 ca bb 7d f2 6f bd 1e d1 d3 3c 54 7a 87 bd
       -0.0061894623 -0.058580864 0.02585655 -0.06615129
