Assets/ML-Agents/Model/Refine_01/Refined_40.onnx (onnx, 350179 bytes, 7 tensors)

action_model._continuous_distribution.log_sigma f4 [1, 6]
-0.038008563 -0.03369019 -0.041366804 -0.07895228 -0.07409053 -0.06304451
00000000: deae 1bbd bafe 09bd 3d70 29bd bcb1 a1bd
00000010: c7bc 97bd 7b1d 81bd

action_model._continuous_distribution.mu.bias f4 [6]
-0.0014064558 0.007124999 -0.005919515 0.013830982 0.009023359 0.024348821
00000000: d358 b8ba d378 e93b 7ef8 c1bb 589b 623c
00000010: b6d6 133c 2e77 c73c

action_model._continuous_distribution.mu.weight f4 [6, 128]
0.010689431 0.009974246 0.00064457266 0.0035007903 -0.0024653603 0.022761783 -0.028038092 0.03186486
-0.028569829 -0.008260554 0.023315027 -0.0114314435 0.018085925 -0.017884377 -0.010200404 0.021013662
0.030506328 -0.008805399 -0.00392082 -0.013502541 -0.015547356 0.0050859335 0.01900175 0.009850011
-0.00017466601 0.012907876 -0.025590569 -0.002455864 0.005296348 0.002509848 -0.016745808 0.031355985
0.02374764 -0.02146286 0.008496624 -0.0022234402 -0.013793014 0.024498956 0.012756741 0.009528176
0.0015047755 -0.007039593 0.028352942 -0.0117701 0.044135146 0.0024652649 -0.0041133347 -0.044824213
0.013519078 0.0015397905 -0.010659503 0.0038631582 0.029634848 0.0097465115 -0.01880219 -0.004868998
-0.0090839295 0.024838893 -0.02237888 0.005835086 -0.0014349166 -0.03834897 -0.0012205906 -0.013716172
0.013146925 -0.0033048426 -0.0048335018 0.043616522 -0.003226011 -0.03243632 0.00069609133 0.00476843
-0.026071282 0.0044992873 -0.0043313387 -0.009306429 0.011382202 9.527423e-05 0.01853676 0.007628161
0.014528309 -0.041658822 0.01877194 -0.022090012 0.033091184 -0.04316471 0.025128694 -0.00999216
0.03413431 -0.044929676 -0.026884902 0.020169802 -0.008818905 -0.02081295 0.020621164 -0.014438208
0.01558262 0.043814357 0.021473989 0.022504043 -0.022384053 -0.0066489507 -0.018879201 -0.03281091
-0.0091342395 -0.0087565705 0.02567155 0.002693488 -0.02072332 0.035201535 -0.033507783 -0.018303813
-0.019385684 -0.02067188 0.03413771 0.008694795 -0.0016939051 -0.0043571787 0.033490833 -0.016496794
-0.00057291053 0.010352011 -0.015621515 -0.037195113 -0.0042688735 0.01049863 -0.0007189778 -0.018114392
-0.0049261115 0.001283561 0.011326017 -0.021648325 -0.008357865 0.03176787 0.0071917344 -0.021591717
-0.021342231 -0.0059309253 0.025638241 0.0068704505 -0.001772778 0.017984763 -0.019947378 -0.04472844
0.019341411 -0.015198884 0.008688793 0.0072780387 -0.018843956 0.01778692 -0.005828158 -0.012195021
0.015013384 -0.023534426 -0.011643688 -0.0037804744 -0.010795033 -0.022983907 -0.020545583 -0.0102671385
-0.011181892 -0.007064179 0.031926326 0.01130999 0.01589666 0.029892467 0.005944206 -0.02163361
0.009698474 0.0031237712 -0.014248529 -0.0097356625 0.028707273 -0.00013443393 -0.0020837623 0.008102186
-0.011222969 -0.008309944 0.0018953263 0.0030320555 -0.0019122398 -0.0038895211 0.0011392295 0.023498198
0.0042351596 -0.01600632 -0.022346377 -0.027374553 0.01590906 0.019117966 -0.03221502 0.0063194023
0.017506203 -0.011075891 0.005501364 -0.0280794 -0.008621293 -0.0012502262 7.5058226e-05 -0.0033741312
0.021106908 -0.0051455516 -0.0055134944 -0.03117983 -0.0028151916 -0.0030121035 -0.00532425 0.023295512
-0.016669571 -0.027486524 0.0050167507 0.019374324 -0.006907979 0.0035133904 0.018752977 0.00715257
-0.016457302 0.0002925062 0.0038333766 0.0040311483 0.0111810705 0.0015898902 -0.03155779 -0.03172336
0.038427778 0.007950162 0.0005651538 -0.03666927 -0.022013932 -0.009377977 -0.044513524 -0.010230699
-0.00043318234 0.007527746 0.000167476 -0.041592073 -0.01173101 -0.022933636 0.010872459 -0.0015599261
0.008646122 0.013475168 0.020254048 0.02929147 0.0058131074 0.0050216797 0.0012376404 0.00050023885
-0.0022459754 0.020049045 0.013526094 -0.033776335 -0.0138365 0.02070833 0.005288811 -0.038991738
00000000: b922 2f3c 056b 233c 8af8 283a 846d 653b
00000010: e291 21bb eb76 ba3c 24b0 e5bc ba84 023d
00000020: 460b eabc 4657 07bc 28ff be3c f34a 3bbc
00000030: ef28 943c 4282 92bc 981f 27bc d824 ac3c
00000040: 68e8 f93c 8544 10bc 397a 80bb c339 5dbc
00000050: 56ba 7ebc e7a7 a63b 8fa9 9b3c f161 213c
00000060: 8d26 37b9 8e7b 533c 50a3 d1bc 90f2 20bb
00000070: fd8c ad3b 437c 243b 812e 89bc 226f 003d
00000080: 698a c23c e1d2 afbc 6d35 0b3c 23b7 11bb
00000090: 18fc 61bc 09b2 c83c a601 513c 111c 1c3c
000000a0: e33b c53a 63ac e6bb 6e44 e83c 61d7 40bc
000000b0: 0ec7 343d 4890 213b 27c9 86bb 9899 37bd
000000c0: 1f7f 5d3c ccd2 c93a 32a5 2ebc 0a2d 7d3b
000000d0: c8c4 f23c d5af 1f3c 0d07 9abc 1e8c 9fbb
000000e0: c3d4 14bc ef7a cb3c ea53 b7bc 4034 bf3b
000000f0: d013 bcba cf13 1dbd 39fc 9fba ccb9 60bc
00000100: 3366 573c 0f96 58bb 5a62 9ebb 3da7 323d
00000110: 7c6b 53bb f2db 04bd e679 363a 7d40 9c3b
00000120: 7193 d5bc c26e 933b e7ed 8dbb fe79 18bc
00000130: 6a7c 3a3c f6cd c738 67da 973c a7f5 f93b
00000140: 2508 6e3c 71a2 2abd 9dc7 993c 1df6 b4bc
00000150: 9f8a 073d 7bcd 30bd b1da cd3c 28b6 23bc
00000160: 6bd0 0b3d 2e08 38bd ba3d dcbc 243b a53c
00000170: 2b7d 10bc eb7f aabc b7ed a83c 3c8e 6cbc
00000180: 3f4e 7f3c af76 333d 38ea af3c 665a b83c
00000190: c35e b7bc 71df d9bb 8ea8 9abc bc64 06bd
000001a0: c7a7 15bc b877 0fbc 244d d23c 3b85 303b
000001b0: f4c3 a9bc 7c2f 103d 753f 09bd e1f1 95bc
000001c0: bace 9ebc 1358 a9bc fcd3 0b3d 9d74 0e3c
000001d0: 0606 deba aac6 8ebb af2d 093d 4924 87bc
000001e0: 602f 16ba 7b9b 293c 62f1 7fbc e759 18bd
000001f0: e8e1 8bbb 7202 2c3c c979 3cba a264 94bc
00000200: 386b a1bb 293d a83a c290 393c d457 b1bc
00000210: 6def 08bc 071f 023d a4a8 eb3b 1de1 b0bc
00000220: e7d5 aebc 3558 c2bb 4a07 d23c 8421 e13b
00000230: 8f5c e8ba c854 933c af68 a3bc 2b35 37bd
00000240: e171 9e3c bd04 79bc 705b 0e3c 9d7c ee3b
00000250: a45e 9abc e0b5 913c 22fa bebb a0cd 47bc
00000260: b2fa 753c 45cb c0bc 2bc5 3ebc d6c1 77bb
00000270: a6dd 30bc bf48 bcbc 364f a8bc 8037 28bc
00000280: 4134 37bc a17a e7bb 2ec5 023d 894d 393c
00000290: b639 823c 0ce1 f43c 9dc7 c23b f838 b1bc
000002a0: 59e6 1e3c 2fb8 4c3b aa72 69bc 5482 1fbc
000002b0: 842b eb3c d5f6 0cb9 bb8f 08bb 08bf 043c
000002c0: 8be0 37bc 6e26 08bc 996c f83a 73b5 463b
000002d0: 1fa4 faba 56e7 7ebb 3352 953a 4b7f c03c
000002e0: 18c7 8a3b b01f 83bc c00f b7bc 9940 e0bc
000002f0: b853 823c 489d 9c3c e6f3 03bd fd12 cf3b
00000300: 2b69 8f3c a777 35bc c944 b43b c506 e6bc
00000310: 5340 0dbc a1de a3ba 9468 9d38 8720 5dbb
00000320: 65e8 ac3c 049c a8bb 8baa b4bb d86c ffbc
00000330: 147f 38bb b666 45bb 0c77 aebb 3bd6 be3c
00000340: a08e 88bc 6b2b e1bc 8e63 a43b e7b6 9e3c
00000350: 545c e2bb e940 663b d89f 993c 1b60 ea3b
00000360: 77d1 86bc 855b 9939 6339 7b3b b917 843b
00000370: cf30 373c dd63 d03a be42 01bd 5bf0 01bd
00000380: 7266 1d3d 6541 023c d426 143a 8432 16bd
00000390: 9056 b4bc 16a6 19bc d053 36bd a99e 27bc
000003a0: c01c e3b9 4fab f63b 7f9c 2f39 735c 2abd
000003b0: 6c33 40bc 52df bbbc 6622 323c 6f76 ccba
000003c0: 77a8 0d3c f3c6 5c3c d1eb a53c aaf4 ef3c
000003d0: e17b be3b e78c a43b 5238 a23a 7622 033a
000003e0: 3731 13bb e53d a43c 8d9c 5d3c 0e59 0abd
000003f0: 7db2 62bc 84a4 a93c c34d ad3b cdb5 1fbd

network_body._body_endoder.seq_layers.0.bias f4 [128]
-0.0023176195 -0.0015033983 -0.00072818855 -0.007675179 -0.0064420253 -0.0046839225 0.012724957 -0.013274231
-0.010582409 -0.0089064175 0.035816092 0.0064123017 -0.003745045 0.009436587 0.031118525 0.03288046
0.046783254 0.001376813 -0.0009860265 0.00033272858 0.0063191573 -2.4535637e-05 0.048655596 -0.0032121039
-0.000491057 0.00049494987 0.0022924652 0.00033448127 -0.016101295 -0.009809586 0.004727523 0.00061524316
0.026816066 0.0026157855 0.0002653499 -0.008519962 -0.004799223 -0.0043903114 0.0034055337 0.002588053
-0.0076889903 0.04192584 -0.00025531286 0.015078225 -0.0010747205 -0.0037682196 -0.009168311 -0.002635241
-0.005700666 -0.0052659484 0.024564527 -0.0023685975 -0.011004267 -0.011675238 -0.0048936894 0.016030448
0.017653963 -0.0012472717 -0.01618576 -0.006032036 0.017910985 -0.0024357392 -0.004632939 -0.0019568717
-0.0021587773 -0.004677099 0.0050090025 0.00067105994 -0.0010622218 0.0011573554 0.0072564436 -0.0056950585
-0.0050976407 0.0022847045 0.004836473 0.003540188 0.0011975837 0.015858352 0.006714142 -0.018324409
0.00082755875 0.00065469625 0.02898753 -0.002472959 0.005634302 0.0038341393 -0.0009555742 -0.0034135885
-0.017650302 -0.0049061854 0.0025533042 -0.0057007014 0.00626612 0.014355421 0.0068462733 -0.004340971
0.0042544072 0.025186548 0.009014003 0.024918795 0.030942578 0.0021747788 0.017905943 -0.0010731765
-0.011228774 0.026672702 0.02229346 0.03689479 0.0080800615 0.00026964894 0.004048308 0.00077239645
-0.0051641795 -0.001968194 -0.014493706 0.007265684 -0.009399726 -0.003233065 0.0017623502 -0.004044672
0.041179217 5.267227e-05 -0.0048395786 0.006069685 0.0076980065 -0.005004593 0.039272383 -0.0021432012
00000000: 34e3 17bb ad0d c5ba e8e3 3eba 1180 fbbb
00000010: a017 d3bb 977b 99bb 577c 503c 297c 59bc
00000020: d761 2dbc 39ec 11bc e5b3 123d 491e d23b
00000030: 6e6f 75bb ea9b 1a3c 47ec fe3c a9ad 063d
00000040: cc9f 3f3d 2e76 b43a 8f3d 81ba 1372 ae39
00000050: ef10 cf3b e1d1 cdb7 174b 473d 2982 52bb
00000060: 47ba 00ba 86bf 013a 2f3d 163b 515d af39
00000070: dde6 83bc 63b8 20bc 56e9 9a3b 4548 213a
00000080: 5ead db3c 996d 2b3b a91e 8b39 5097 0bbc
00000090: cd42 9dbb 9adc 8fbb 602f 5f3b 539c 293b
000000a0: edf3 fbbb 6eba 2b3d 83db 85b9 a90a 773c
000000b0: a3dd 8cba 3cf4 76bb af36 16bc 02b4 2cbb
000000c0: a7cc babb fa8d acbb 8c3b c93c 793a 1bbb
000000d0: 3e4b 34bc 7f49 3fbc 3e5b a0bb 4952 833c
000000e0: 0b9f 903c 7e7b a3ba 0098 84bc 63a8 c5bb
000000f0: 0fba 923c eca0 1fbb e9cf 97bb dc3e 00bb
00000100: 467a 0dbb 5a42 99bb 8f22 a43b 12ea 2f3a
00000110: 403a 8bba 67b2 973a 76c7 ed3b 9d9d babb
00000120: 1c0a a7bb fbba 153b 477b 9e3b 8002 683b
00000130: 3ef8 9c3a 60e9 813c 4e02 dc3b 121d 96bc
00000140: 87f0 583a ec9f 2b3a 4277 ed3c 5e11 22bb
00000150: f39f b83b 2f46 7b3b 807f 7aba 83b6 5fbb
00000160: 5e97 90bc 11c4 a0bb 5655 273b f3cc babb
00000170: 0654 cd3b 0033 6b3c b456 e03b b43e 8ebb
00000180: 8e68 8b3b 0554 ce3c 78af 133c 8022 cc3c
00000190: 4a7b fd3c bc86 0e3b 7caf 923c d4a9 8cba
000001a0: e4f8 37bc b680 da3c c6a0 b63c fe1e 173d
000001b0: 3c62 043c ab5f 8d39 aba7 843b a67a 4a3a
000001c0: 4738 a9bb d1fc 00bb 0277 6dbc fa14 ee3b
000001d0: 4f01 1abc d4e1 53bb a9fe e63a 2b89 84bb
000001e0: 8aab 283d 6bec 5c38 5495 9ebb 35e4 c63b
000001f0: 8f3f fc3b 92fd a3bb 14dc 203d f374 0cbb

network_body._body_endoder.seq_layers.0.weight f4 [128, 544]
0.022471176 0.015005574 -0.0624422 0.012927969 0.015689036 0.007821286 -0.035802417 -0.106458336
0.038849983 0.0050651887 -0.044324018 -0.038037036 -0.013352582 0.022866521 -0.008345464 0.07381515
0.006352835 0.018797044 -0.016980404 -0.03280827 -0.022328502 -0.00013764358 -0.060099613 -0.035277225
-0.08712396 0.011398643 0.052020106 -0.022867605 -0.062367085 -0.020568242 -0.06498365 0.032401145
-0.0018099474 -0.032419223 0.035417046 -0.032767754 0.07494375 -0.0072901705 0.025089405 -0.08227823
-0.019920176 -0.0014192336 -0.013235069 0.022781113 0.05324085 -0.062385723 -0.02423967 -0.022614118
0.035905816 -0.08773994 -0.0211918 -0.06261375 0.028581362 -0.029107159 -0.06831873 0.074156195
-0.01143885 -0.14311084 0.026722925 -0.0050000767 -0.050485216 -0.0072571225 0.025740093 -0.01587663
0.13431638 0.042799056 -0.012826194 -0.0045165103 0.012121473 0.02668244 0.065189645 0.03026889
-0.0083196685 -0.037840378 -0.012086086 0.002188796 0.07485179 -0.060047552 -0.010236975 0.021740783
0.026260884 -0.08666325 -0.035947386 -0.05448252 0.0075298725 -0.0044353404 -0.026893318 0.0033873494
-0.009239742 -0.07201632 0.03650852 0.083697416 0.0048303655 0.00093963376 0.035979755 -0.012988689
-0.0020443161 0.042249124 -0.016964182 -0.08630668 0.017246101 -0.010191724 -0.015650757 -0.031641725
-0.018717822 -0.01824292 -0.0016911672 -0.0308605 0.015194774 -0.08659385 0.020982062 0.077949524
-0.039999284 -0.0477024 -0.08343996 -0.06347585 -0.010322998 -0.024286447 -0.02749371 -0.040534206
-0.016092237 -0.012795632 -0.048488054 0.023526426 0.010464699 -0.019645287 -0.0499193 -0.07900462
-0.01340817 -0.060633 -0.1252527 0.03846199 0.046005085 -0.012644469 -0.036610693 0.012725467
-0.085901156 -0.069771335 -0.026263747 -0.05366785 0.037682187 -0.0005679138 0.00088843843 -0.021299692
-0.004348122 0.039647777 0.0045245755 -0.114352375 -0.03322929 -0.018893473 -0.007362391 -0.02822823
0.014242845 0.012668225 -0.052601364 0.016709806 0.0062175156 0.017560756 -0.07184194 0.013790723
-0.018981474 0.005283126 -0.023623968 -0.038835388 -0.07943851 -0.06997454 -0.009513735 0.007612812
-0.017493028 -0.0036794825 -0.0131078735 -0.012202628 -0.013227917 -0.038203366 0.06918877 -0.04566873
0.024089117 0.030021425 -0.07125434 -0.01168726 0.03859815 -0.06643251 0.062206294 -0.07783978
0.0014866674 0.0033126182 -0.042768244 0.026596488 -0.034734752 -0.06478873 0.002867826 -0.0068637882
-0.039486777 -0.04030587 0.03433351 0.05399818 0.03135198 -0.08374778 0.062115822 0.03066875
0.003959863 -0.015457339 0.0056667402 -0.007117559 0.083941534 -0.011633162 0.057675075 -0.0042899423
-0.029804314 -0.046081487 0.04190633 0.06466057 -0.04850457 0.011574252 0.038112514 0.006427715
0.03634875 0.07837423 0.021865238 -0.104788706 -0.026962113 -0.015838439 -0.039515506 -0.038180664
0.0084478725 -0.016140385 -0.019837918 0.012867845 0.07559873 0.03820604 -0.0020659063 -0.05584213
-0.007313141 0.00280029 0.034700524 -0.0036460676 0.05168463 0.02747457 -0.04681139 0.0047354014
0.0020788338 0.0055585676 -0.015883172 -0.07123709 -0.0074657626 0.051072557 0.0068637948 -0.02766206
0.031844452 0.060531963 -0.020315785 -0.08256562 -0.052371148 -0.08538743 0.06942186 -0.051789075
00000000: 7915 b83c f0d9 753c 64c3 7fbd d5cf 533c
00000010: 4b86 803c da24 003c 8ea5 12bd d406 dabd
00000020: 2921 1f3d e2f9 a53b 1a8d 35bd b9cc 1bbd
00000030: cac4 5abc 9252 bb3c 6abb 08bc 662c 973d
00000040: 712b d03b 42fc 993c 7d1a 8bbc f761 06bd
00000050: 43ea b6bc 6b54 10b9 032b 76bd da7e 10bd
00000060: 0c6e b2bd 60c1 3a3c 0913 553d d854 bbbc
00000070: a174 7fbd bb7e a8bc 2616 85bd 10b7 043d
00000080: c23b edba 05ca 04bd 7711 113d 7b37 06bd
00000090: 1c7c 993d 62e2 eebb 4c88 cd3c 7d81 a8bd
000000a0: a32f a3bc 9405 baba e7d7 58bc 759f ba3c
000000b0: 1413 5a3d 2c88 7fbd 4692 c6bc 3e41 b9bc
000000c0: fa11 133d ffb0 b3bd 6d9a adbc a33b 80bd
000000d0: 7623 ea3c 2372 eebc b1ea 8bbd 34df 973d
000000e0: 046a 3bbc a68b 12be 09ea da3c afd7 a3bb
000000f0: 96c9 4ebd 28cd edbb e3dc d23c b50f 82bc
00000100: 3c8a 093e 104e 2f3d f524 52bc 3cff 93bb
00000110: 2599 463c 2295 da3c 2682 853d 77f6 f73c
00000120: 384f 08bc 83fe 1abd b804 46bc e771 0f3b
00000130: e54b 993d 6cf4 75bd fcb8 27bc ba19 b23c
00000140: 1121 d73c 817c b1bd 913d 13bd 1029 5fbd
00000150: 26bd f63b 5556 91bb 604f dcbc 4bfe 5d3b
00000160: 4962 17bc 4b7d 93bd f589 153d 8d69 ab3d
00000170: 0b48 9e3b c151 763a 825f 133d 83ce 54bc
00000180: eff9 05bb 6b0d 2d3d 78f8 8abc 8fc1 b0bd
00000190: b247 8d3c 30fb 26bc 0436 80bc c19a 01bd
000001a0: 1e56 99bc 2d72 95bc 28aa ddba 29cf fcbc
000001b0: 80f3 783c 1e58 b1bd 93e2 ab3c 00a4 9f3d
000001c0: 4ad6 23bd 9763 43bd 92e2 aabd a0ff 81bd
000001d0: cb21 29bc 5ff4 c6bc 7d3a e1bc 3207 26bd
000001e0: ded3 83bc c5a4 51bc 699b 46bd 7eba c03c
000001f0: 2174 2b3c 27ef a0bc 2e78 4cbd 2dcd a1bd
00000200: f1ad 5bbc 4f5a 78bd 3e42 00be 528a 1d3d
00000210: d46f 3c3d bf2a 4fbc 18f5 15bd 7a7e 503c
00000220: f2ec afbd 46e4 8ebd 1227 d7bc d2d2 5bbd
00000230: a358 1a3d 0de0 14ba 18e6 683a b17c aebc
00000240: b17a 8ebb b565 223d e442 943b 9431 eabd
00000250: 701b 08bd 7cc6 9abc 3640 f1bb e43e e7bc
00000260: d25a 693c 638e 4f3c 8774 57bd 01e3 883c
00000270: 4dbc cb3b 93db 8f3c de21 93bd 7cf2 613c
00000280: 097f 9bbc 131e ad3b 0d87 c1bc db11 1fbd
00000290: a8b0 a2bd d04e 8fbd 7fdf 1bbc e574 f93b
000002a0: 8a4d 8fbc 7923 71bb 68c2 56bc 88ed 47bc
000002b0: e8b9 58bc 227b 1cbd d8b2 8d3d 220f 3bbd
000002c0: 8a56 c53c 7eef f53c cced 91bd ec7b 3fbc
000002d0: 1819 1e3d c50d 88bd 07cc 7e3d 766a 9fbd
000002e0: 48dc c23a 8318 593b c12d 2fbd e1e0 d93c
000002f0: 0746 0ebd f4af 84bd 23f2 3b3b a1e9 e0bb
00000300: e3bc 21bd c517 25bd 4ba1 0c3d 322d 5d3d
00000310: ef6a 003d f583 abbd 296d 7e3d 083d fb3c
00000320: bdc1 813b c740 7dbc 10b0 b93b 6a3a e9bb
00000330: 8ae9 ab3d 0599 3ebc b33c 6c3d a592 8cbb
00000340: 2d28 f4bc f1bf 3cbd f9a5 2b3d c36c 843d
00000350: baac 46bd eea1 3d3c de1b 1c3d 959f d23b
00000360: 6de2 143d ab82 a03d ba1e b33c 769b d6bd
00000370: a6df dcbc 9dbf 81bc 03db 21bd 5463 1cbd
00000380: f268 0a3c d738 84bc 2183 a2bc a7d3 523c
00000390: 82d3 9a3d f07d 1c3d 2864 07bb b8ba 64bd
000003a0: 13a3 efbb 1285 373b 2322 0e3d ddf2 6ebb
000003b0: 43b3 533d 5912 e13c 4dbd 3fbd 6d2b 9b3b
000003c0: 0b3d 083b a524 b63b 6d1d 82bc c0e4 91bd
000003d0: 5ba3 f4bb 7531 513d afe9 e03b 8b9b e2bc
000003e0: 546f 023d 5df0 773d 4a6d a6bc 2a18 a9bd
000003f0: 2183 56bd 9bdf aebd 0c2d 8e3d c820 54bd

network_body._body_endoder.seq_layers.2.bias f4 [128]
-0.01389364 -0.006957116 0.007907646 -0.002709173 -0.006287123 -0.0026905034 0.0011709977 0.0005533689
-0.0010877689 -0.023531608 0.035550963 -0.004954387 -0.011826471 -0.006999875 0.0183676 0.023870166
5.476807e-05 -0.008098643 -0.007278083 0.0073589273 -0.01027009 0.01602712 -0.008621356 -0.003145804
0.013074001 -0.012535417 -0.023626534 0.013261188 0.0072195125 -0.00788923 -0.0058261985 0.011034852
0.020655282 0.027294066 -0.0020867514 -0.00044529088 0.019741034 0.0045127827 0.009644367 0.010634088
0.004382204 0.015989177 -0.009446148 0.03736717 0.011312977 -0.011545922 -0.0019241668 0.0058081676
-0.0043315613 -0.009959228 0.013962113 -0.02241762 -0.0044204653 0.002076635 0.0020429203 -0.0026416595
0.012139399 -0.00068215025 -0.01116008 -0.029424405 0.0069501 0.0054420517 0.003922049 -0.0043318034
0.008849584 2.6416274e-05 0.0067873886 -0.0025877114 -0.0020419967 -0.013596279 -0.009243318 -0.011311381
0.0029145195 -0.011907815 0.037767578 -0.000851429 -0.008419656 0.0024143062 0.00019586462 0.002676212
0.013675227 0.012873146 -0.0014443429 0.0152414655 -0.00828504 0.0036630111 0.029263237 -0.005076365
0.015466002 0.00092517695 0.0072303656 -0.0018602727 0.0011989055 0.0029143982 -0.0006839495 -0.012358183
0.015836898 -0.005117427 0.0033127288 -0.003894582 0.017964868 -0.0013124815 -0.00324148 0.0069611124
0.04575599 -0.006471943 0.00998883 -0.0013312185 -0.032924324 -0.00013914607 0.008268122 -0.00032771844
-0.002082759 -0.00037763035 -0.010155305 -0.015290786 0.014342883 -0.006028696 -0.0025752385 -0.007955675
0.001023554 0.007091516 -0.022020962 0.0068721287 0.017761331 0.0023084094 -0.015911788 0.004653644
00000000: 26a2 63bc 85f8 e3bb 128f 013c 618c 31bb
00000010: 3604 cebb 2853 30bb 2a7c 993a f50f 113a
00000020: 7893 8eba 5cc5 c0bc e39d 113d 6958 a2bb
00000030: d1c3 41bc 355f e5bb a677 963c 5e8b c33c
00000040: c4b6 6538 2cb0 04bc fc7c eebb 2823 f13b
00000050: e143 28bc 4f4b 833c 9740 0dbc d529 4ebb
00000060: 5634 563c 5a61 4dbc 6f8c c1bc 7445 593c
00000070: a991 ec3b d441 01bc b2e9 bebb 86cb 343c
00000080: 4435 a93c ce97 df3c e1c1 08bb ee75 e9b9
00000090: f3b7 a13c f7df 933b 6803 1e3c 993a 2e3c
000000a0: 9798 8f3b bcfb 823c 04c4 1abc 510e 193d
000000b0: 115a 393c 1b2b 3dbc 5334 fcba 7152 be3b
000000c0: c5ef 8dbb 082c 23bc 59c1 643c 28a5 b7bc
000000d0: 8dd9 90bb 2718 083b 84e2 053b b11f 2dbb
000000e0: 54e4 463c 54d2 32ba c5d8 36bc 730b f1bc
000000f0: aabd e33b 3d53 b23b 8884 803b cdf1 8dbb
00000100: d8fd 103c 8498 dd37 be68 de3b 9896 29bb
00000110: 05d3 05bb edc2 5ebc 4971 17bc 5f53 39bc
00000120: 8601 3f3b ff18 43bc 2db2 1a3d 6f32 5fba
00000130: 99f2 09bc 5639 1e3b 0261 4d39 6363 2f3b
00000140: 0f0e 603c e3e9 523c 1b50 bdba 57b7 793c
00000150: fabd 07bc 210f 703b 75b9 ef3c a357 a6bb
00000160: 1d65 7d3c 9387 723a b4ec ec3b 65d4 f3ba
00000170: 9824 9d3a 7dff 3e3b 134b 33ba fa79 4abc
00000180: 62bc 813c 17b0 a7bb 5e1a 593b 3e3c 7fbb
00000190: 0f2b 933c 9207 acba 036f 54bb 0b1a e43b
000001a0: a26a 3b3d 9812 d4bb 31a8 233c 487c aeba
000001b0: a8db 06bd bde7 11b9 0477 073c a0d1 abb9
000001c0: e67e 08bb b0fc c5b9 7062 26bc 3486 7abc
000001d0: 69fe 6a3c 5e8c c5bb 55c5 28bb 8558 02bc
000001e0: c628 863a f35f e83b 4e65 b4bc 982f e13b
000001f0: 3680 913c af48 173b 7059 82bc 987d 983b

network_body._body_endoder.seq_layers.2.weight f4 [128, 128]
-0.13074017 -0.022483807 -0.015264568 0.031949796 0.046671208 -0.085829295 -0.029415922 -0.10519878
-0.009593433 0.017522655 0.011236714 -0.17409152 0.12215768 -0.06671621 -0.24261318 0.102559276
0.0060288464 0.0437876 0.05948005 -6.502543e-05 -0.15612468 -0.029954422 -0.09724065 -0.06847401
-0.16194339 -0.07862107 -0.01606697 -0.121172644 0.123772986 -0.011515157 0.07980855 0.10008194
-0.025697926 -0.0048300526 -0.0023971875 0.096389934 -0.15273829 0.009499191 -0.016537596 -0.08823939
0.099622265 -0.14787291 -0.07365859 0.12425085 -0.06580326 0.057753563 -0.007365325 0.17426969
0.09343178 -0.10099505 0.108308755 -0.13098216 0.030217752 0.05801024 0.11744415 0.038623467
0.04643252 -0.0041534533 0.03262625 -0.004662721 0.10136395 0.059896823 0.02408162 0.00726104
0.06867013 -0.01486702 -0.18438919 0.052799378 0.143808 0.020357648 -0.041746974 -0.076914415
0.12405383 -0.1810436 -0.1504904 0.075021096 -0.121761054 -0.0436066 0.049488287 0.06626752
-0.055446193 0.05710788 -0.07135872 0.00041452522 -0.17168063 -0.008530584 -0.066590264 -0.028640382
0.0019469701 0.024858464 0.034163356 0.12185936 0.025130287 0.10201224 0.19279537 0.05066004
-0.080463484 0.024106098 0.16004781 -0.12783931 -0.06856222 0.01725604 -0.020885969 -0.0765851
0.0026439927 -0.046782434 -0.106043905 -0.0709934 0.19428088 0.2616975 -0.008390957 0.02864745
-0.08533581 -0.15444586 -0.033232234 -0.094027035 -0.055011973 -0.18864082 0.044625517 -0.0051429975
0.07383945 -0.043696 -0.023730872 -0.038026128 -0.010868595 -0.09112825 0.050186023 0.0016395025
0.07018711 -0.10714757 -0.16630106 -0.0073176287 -0.01772179 -0.107027724 0.0005344099 0.07291529
-0.042666297 0.05099707 0.051304452 0.12922259 0.12736765 0.103011474 0.09071717 -0.0100675495
0.07421283 0.0002091413 0.07621951 -0.043295942 -0.02176424 -0.029831788 0.18011831 0.2543363
0.15788518 -0.109625906 0.18156852 0.10149218 -0.16164388 0.015597771 -0.0029889338 -0.15541798
0.08159062 -0.053522334 0.093235895 -0.19143869 0.003148301 -0.00047245686 0.12917472 -0.024934959
0.008070801 -0.052717965 -0.03620319 -0.11711007 -0.13293967 0.041871946 0.03059415 0.121447004
-0.0040450627 0.024872912 -0.12759674 -0.016468497 0.014121491 -0.12491294 -0.04236411 -0.07010154
-0.06311023 0.015156549 0.13036734 0.092823476 -0.026565496 0.0815775 -0.116445236 0.0006261195
-0.12546606 0.03851206 -0.05165192 -0.06611337 -0.032955572 0.024514964 0.12556727 0.05023461
-0.014754076 0.12362783 -0.040309515 -0.072499126 0.1449526 0.0068621947 0.07369027 0.122359
-0.1251727 -0.009385217 0.01620105 0.11176081 0.080611765 0.038477924 0.0939097 0.054745305
0.0057924655 -0.0053094816 -0.030870775 0.17102718 0.03299534 0.14150956 0.004062218 -0.19518185
-0.037769504 0.0052415 -0.043578755 0.2482856 0.0131210815 0.049039565 -0.20190048 0.054096427
0.16991754 -0.08300577 0.026488282 -0.078207456 -0.010666979 0.004145894 -0.08683577 -0.03974139
-0.113164864 0.062464233 -0.04412558 -0.04699574 -0.06808626 -0.04484053 0.10178462 0.00040816888
0.016144486 0.18675509 0.10415265 0.078961685 0.008945043 -0.07820824 -0.060857613 -0.009465057
00000000: c0e0 05be f62f b8bc 3d18 7abc cadd 023d
00000010: 4f2a 3f3d 45c7 afbd a9f9 f0bc 7572 d7bd
00000020: c62d 1dbc ac8b 8f3c 321a 383c 0c45 32be
00000030: ce2d fa3d 82a2 88bd 976f 78be 990a d23d
00000040: a18d c53b a05a 333d 5aa1 733d 435e 88b8
00000050: 26df 1fbe fa62 f5bc 1b26 c7bd 1a3c 8cbd
00000060: 7dd4 25be 1504 a1bd e19e 83bc 5d29 f8bd
00000070: b17c fd3d 12aa 3cbc aa72 a33d c3f7 cc3d
00000080: 7584 d2bc 6b45 9ebb 221a 1dbb 1668 c53d
00000090: 6d67 1cbe 7fa2 1b3c da79 87bc dab6 b4bd
000000a0: c206 cc3d ff6b 17be 51da 96bd 3b77 fe3d
000000b0: dcc3 86bd 008f 6c3d d358 f1bb c173 323e
000000c0: 2959 bf3d 7ed6 cebd fbd0 dd3d 3020 06be
000000d0: 388b f73c 259c 6d3d 8f86 f03d a433 1e3d
000000e0: 0730 3e3d b119 88bb 1aa3 053d bdc9 98bb
000000f0: e797 cf3d 5f56 753d d146 c53c 05ee ed3b
00000100: eda2 8c3d cd94 73bc 85d0 3cbe 2944 583d
00000110: 6842 133e 15c5 a63c e0fe 2abd 4e85 9dbd
00000120: ef0f fe3d 7e63 39be 281a 1abe a9a4 993d
00000130: dc5d f9bd d69c 32bd 3bb4 4a3d 44b7 873d
00000140: 8c1b 63bd f4e9 693d 8524 92bd a254 d939
00000150: 0ccd 2fbe ddc3 0bbc 7a60 88bd 3c9f eabc
00000160: 7a31 ff3a faa3 cb3c e0ee 0b3d 6691 f93d
00000170: 08de cd3c cbeb d03d 266c 453e e780 4f3d
00000180: 0aca a4bd 277a c53c 93e3 233e 4fe8 02be
00000190: 596a 8cbd 8a5c 8d3c 0d19 abbc a6d8 9cbd
000001a0: d646 2d3b f09e 3fbd 8c2d d9bd fd64 91bd
000001b0: 91f1 463e 37fd 853e 397a 09bc 0fae ea3c
000001c0: 8bc4 aebd 0e27 1ebe 861e 08bd 3f91 c0bd
000001d0: 3c54 61bd 0f2b 41be 3fc9 363d 9786 a8bb
000001e0: 2339 973d 94fa 32bd 3f67 c2bc 49c1 1bbd
000001f0: 3112 32bc 73a1 babd dc8f 4d3d 93e4 d63a
00000200: 42be 8f3d 2f70 dbbd d34a 2abe b8c8 efbb
00000210: 4a2d 91bc 5a31 dbbd a417 0c3a 9d54 953d
00000220: dbc2 2ebd 4ee2 503d 9e24 523d ed52 043e
00000230: aa6c 023e aef7 d23d ecc9 b93d 5df2 24bc
00000240: e5fc 973d f14c 5b39 f918 9c3d 1657 31bd
00000250: eb4a b2bc cb61 f4bc ef70 383e 5e38 823e
00000260: a7ac 213e 8c83 e0bd 19ed 393e 22db cf3d
00000270: f985 25be cb8d 7f3c fde1 43bb e425 1fbe
00000280: fc18 a73d 3c3a 5bbd 76f2 be3d 8108 44be
00000290: ba53 4e3b 16b4 f7b9 6146 043e 6644 ccbc
000002a0: 653b 043c cbee 57bd cc49 14bd 68d7 efbd
000002b0: 5621 08be eb81 2b3d 95a0 fa3c 35b9 f83d
000002c0: 728c 84bb 47c2 cb3c b8a8 02be f1e8 86bc
000002d0: d45d 673c 5bd2 ffbd fd85 2dbd 6591 8fbd
000002e0: f03f 81bd 2d53 783c 047f 053e 3c1a be3d
000002f0: e29f d9bc 1b12 a73d d77a eebd 2b22 243a
00000300: 2d7a 00be d2be 1d3d f790 53bd 7266 87bd
00000310: 6cfc 06bd 9bd3 c83c b594 003e cec2 4d3d
00000320: 14bb 71bc 9630 fd3d 971b 25bd 6c7a 94bd
00000330: 746e 143e 43dc e03b edea 963d 5b97 fa3d
00000340: 462d 00be 74c4 19bc 10b8 843c dae2 e43d
00000350: c817 a53d 079b 1d3d bb53 c03d 9d3c 603d
00000360: b9ce bd3b 29fb adbb b5e4 fcbc c021 2f3e
00000370: 1f26 073d e2e7 103e 5b1c 853b c0dd 47be
00000380: 32b4 1abd e4c0 ab3b a37f 32bd 953e 7e3e
00000390: cef9 563c b6dd 483d 00bf 4ebe 3794 5d3d
000003a0: ddfe 2d3e eefe a9bd f4fd d83c 3b2b a0bd
000003b0: 8dc4 2ebc 48da 873b f4d6 b1bd dec7 22bd
000003c0: fbc2 e7bd 7fda 7f3d 06bd 34bd 9b7e 40bd
000003d0: cf70 8bbd b4aa 37bd 7474 d03d 80ff d539
000003e0: 7141 843c ba3c 3f3e fc4d d53d aab6 a13d
000003f0: 3b8e 123c a42b a0bd d545 79bd 5413 1bbc
